…
   "cell_type": "code",
   "execution_count": 12,
   "metadata": {},
   "outputs": [],
   "source": [
    "data_loader = torch.utils.data.DataLoader(train_dataset, batch_size=batch_size, shuffle=True,num_workers=workers)\n",
    "\n",
    "dset_name = 'myDataset_UTKFace' #pick a meaningful name\n",
    "result_dir = '{}_DCGAN'.format(dset_name)\n"
   ]
  },
  {
   "cell_type": "code",
   "execution_count": 17,
   "metadata": {},
   "outputs": [
    {
     "data": {
      "text/plain": [
       "DataParallel(\n",
       "  (module): Discriminator(\n",
       "    (discriminator): Sequential(\n",
       "      (0): Conv2d(3, 64, kernel_size=(4, 4), stride=(2, 2), padding=(1, 1), bias=False)\n",
       "      (1): LeakyReLU(negative_slope=0.2, inplace=True)\n",
       "      (2): Conv2d(64, 128, kernel_size=(4, 4), stride=(2, 2), padding=(1, 1), bias=False)\n",
       "      (3): BatchNorm2d(128, eps=1e-05, momentum=0.1, affine=True, track_running_stats=True)\n",
       "      (4): LeakyReLU(negative_slope=0.2, inplace=True)\n",
       "      (5): Conv2d(128, 256, kernel_size=(4, 4), stride=(2, 2), padding=(1, 1), bias=False)\n",
       "      (6): BatchNorm2d(256, eps=1e-05, momentum=0.1, affine=True, track_running_stats=True)\n",
       "      (7): LeakyReLU(negative_slope=0.2, inplace=True)\n",
       "      (8): Conv2d(256, 512, kernel_size=(4, 4), stride=(2, 2), padding=(1, 1), bias=False)\n",
       "      (9): BatchNorm2d(512, eps=1e-05, momentum=0.1, affine=True, track_running_stats=True)\n",
       "      (10): LeakyReLU(negative_slope=0.2, inplace=True)\n",
       "      (11): Conv2d(512, 1, kernel_size=(4, 4), stride=(1, 1), bias=False)\n",
       "      (12): Sigmoid()\n",
       "    )\n",
       "  )\n",
       ")"
      ]
     },
     "execution_count": 17,
     "metadata": {},
     "output_type": "execute_result"
    }
   ],
   "source": [
    "#######################################################################################################\n",
    "# TODO 5a: Fill code for training setup\n",
…
    "<img src='img/Faces_DCGAN_latent_walk_2.gif' style='margin: 0px 10px' align='left' width=\"128\">\n",
    "\n",
    "<img src='img/Faces_DCGAN_latent_walk_3.gif' style='margin: 0px 10px' align='left' width=\"128\">"
   ]
  },
  {
   "cell_type": "code",
   "execution_count": 47,
   "metadata": {},
   "outputs": [],
   "source": [
    "from scipy.ndimage import gaussian_filter\n",
    "from torchvision.utils import save_image"
   ]
  },
  {
   "cell_type": "code",
   "execution_count": 106,
   "metadata": {},
   "outputs": [
    {
     "data": {
      "text/plain": [
       "DataParallel(\n",
       "  (module): Generator(\n",
       "    (generator): Sequential(\n",
       "      (0): ConvTranspose2d(100, 512, kernel_size=(4, 4), stride=(1, 1), bias=False)\n",
       "      (1): BatchNorm2d(512, eps=1e-05, momentum=0.1, affine=True, track_running_stats=True)\n",
       "      (2): ReLU(inplace=True)\n",
       "      (3): ConvTranspose2d(512, 256, kernel_size=(4, 4), stride=(2, 2), padding=(1, 1), bias=False)\n",
       "      (4): BatchNorm2d(256, eps=1e-05, momentum=0.1, affine=True, track_running_stats=True)\n",
       "      (5): ReLU(inplace=True)\n",
       "      (6): ConvTranspose2d(256, 128, kernel_size=(4, 4), stride=(2, 2), padding=(1, 1), bias=False)\n",
       "      (7): BatchNorm2d(128, eps=1e-05, momentum=0.1, affine=True, track_running_stats=True)\n",
       "      (8): ReLU(inplace=True)\n",
       "      (9): ConvTranspose2d(128, 64, kernel_size=(4, 4), stride=(2, 2), padding=(1, 1), bias=False)\n",
       "      (10): BatchNorm2d(64, eps=1e-05, momentum=0.1, affine=True, track_running_stats=True)\n",
       "      (11): ReLU(inplace=True)\n",
       "      (12): ConvTranspose2d(64, 3, kernel_size=(4, 4), stride=(2, 2), padding=(1, 1), bias=False)\n",
       "      (13): Tanh()\n",
       "    )\n",
       "  )\n",
       ")"
      ]
     },
     "execution_count": 106,
     "metadata": {},
     "output_type": "execute_result"
    }
   ],
   "source": [
    "G = Generator().to(device)\n",
    "G = nn.DataParallel(G, device_ids=[g for g in gpu_id])\n",
    "G.load_state_dict(torch.load('./myDataset_UTKFace_DCGAN/generator_network.pkl'))\n",
…
