…
   "metadata": {},
   "source": [
    "Similiar to the authors of [5], we want to use vgg16 this time."
   ]
  },
  {
   "cell_type": "code",
   "execution_count": 19,
   "metadata": {},
   "outputs": [],
   "source": [
    "# Load VGG 16\n",
    "# get the \"features\" portion of VGG16 (we will not need the \"classifier\" portion)\n",
    "vgg16 = models.vgg16(pretrained = True).features.to(device)"
   ]
  },
  {
   "cell_type": "code",
   "execution_count": 57,
   "metadata": {},
   "outputs": [
    {
     "name": "stdout",
     "output_type": "stream",
     "text": [
      "Sequential(\n",
      "  (0): Conv2d(3, 64, kernel_size=(3, 3), stride=(1, 1), padding=(1, 1))\n",
      "  (1): ReLU(inplace=True)\n",
      "  (2): Conv2d(64, 64, kernel_size=(3, 3), stride=(1, 1), padding=(1, 1))\n",
      "  (3): ReLU(inplace=True)\n",
      "  (4): MaxPool2d(kernel_size=2, stride=2, padding=0, dilation=1, ceil_mode=False)\n",
      "  (5): Conv2d(64, 128, kernel_size=(3, 3), stride=(1, 1), padding=(1, 1))\n",
      "  (6): ReLU(inplace=True)\n",
      "  (7): Conv2d(128, 128, kernel_size=(3, 3), stride=(1, 1), padding=(1, 1))\n",
      "  (8): ReLU(inplace=True)\n",
      "  (9): MaxPool2d(kernel_size=2, stride=2, padding=0, dilation=1, ceil_mode=False)\n",
      "  (10): Conv2d(128, 256, kernel_size=(3, 3), stride=(1, 1), padding=(1, 1))\n",
      "  (11): ReLU(inplace=True)\n",
      "  (12): Conv2d(256, 256, kernel_size=(3, 3), stride=(1, 1), padding=(1, 1))\n",
      "  (13): ReLU(inplace=True)\n",
      "  (14): Conv2d(256, 256, kernel_size=(3, 3), stride=(1, 1), padding=(1, 1))\n",
      "  (15): ReLU(inplace=True)\n",
      "  (16): MaxPool2d(kernel_size=2, stride=2, padding=0, dilation=1, ceil_mode=False)\n",
      "  (17): Conv2d(256, 512, kernel_size=(3, 3), stride=(1, 1), padding=(1, 1))\n",
      "  (18): ReLU(inplace=True)\n",
      "  (19): Conv2d(512, 512, kernel_size=(3, 3), stride=(1, 1), padding=(1, 1))\n",
      "  (20): ReLU(inplace=True)\n",
      "  (21): Conv2d(512, 512, kernel_size=(3, 3), stride=(1, 1), padding=(1, 1))\n",
      "  (22): ReLU(inplace=True)\n",
      "  (23): MaxPool2d(kernel_size=2, stride=2, padding=0, dilation=1, ceil_mode=False)\n",
      "  (24): Conv2d(512, 512, kernel_size=(3, 3), stride=(1, 1), padding=(1, 1))\n",
      "  (25): ReLU(inplace=True)\n",
      "  (26): Conv2d(512, 512, kernel_size=(3, 3), stride=(1, 1), padding=(1, 1))\n",
      "  (27): ReLU(inplace=True)\n",
      "  (28): Conv2d(512, 512, kernel_size=(3, 3), stride=(1, 1), padding=(1, 1))\n",
      "  (29): ReLU(inplace=True)\n",
      "  (30): MaxPool2d(kernel_size=2, stride=2, padding=0, dilation=1, ceil_mode=False)\n",
      ")\n"
     ]
    }
   ],
   "source": [
    "print(vgg16)"
   ]
  },
  {
   "cell_type": "markdown",
   "metadata": {},
   "source": [
    "## Task 6.1 Complete the training method, refer to [5] and [6] for details (10 points)"
…
