…
   "cell_type": "code",
   "execution_count": 19,
   "metadata": {},
   "outputs": [
    {
     "data": {
      "text/plain": [
       "torch.Size([4, 3, 32, 32])"
      ]
     },
     "execution_count": 19,
     "metadata": {},
     "output_type": "execute_result"
    }
   ],
   "source": [
    "inputs.shape"
   ]
  },
  {
   "cell_type": "markdown",
   "metadata": {
    "colab_type": "text",
    "id": "YmMMSK0TVO9L"
   },
   "source": [
    "## Task 2: Basic Networks (20 points)\n",
    "1. Create a Fully connected Network (FcNet) as follows in the Jupyter Notebook:\n",
    "```\n",
    "FcNet(\n",
    "  (fc1): Linear(in_features=3072, out_features=1024, bias=True)\n",
    "  (fc2): Linear(in_features=1024, out_features=400, bias=True)\n",
    "  (fc3): Linear(in_features=400, out_features=84, bias=True)\n",
    "  (fc4): Linear(in_features=84, out_features=10, bias=True)\n",
    ")\n",
    "```\n",
    "Train the FcNet for **3** epoches and record the training time and accuracy in your final report.\n",
    "\n",
    "2. Create a Convolutional Network (ConvNet) as follows in the Jupyter Notebook:\n",
    "```\n",
    "ConvNet(\n",
    "  (conv1): Conv2d(3, 6, kernel_size=(5, 5), stride=(1, 1))\n",
    "  (pool): MaxPool2d(kernel_size=2, stride=2, padding=0, dilation=1, ceil_mode=False)\n",
    "  (conv2): Conv2d(6, 16, kernel_size=(5, 5), stride=(1, 1))\n",
    "  (fc1): Linear(in_features=400, out_features=120, bias=True)\n",
    "  (fc2): Linear(in_features=120, out_features=84, bias=True)\n",
    "  (fc3): Linear(in_features=84, out_features=10, bias=True)\n",
    ")\n",
    "```\n",
    "Train the ConvNet for **3** epoches and record the training time and accuracy in your final report. \n",
    "\n",
    "*Use the default SGD optimizer ( lr=0.001, momentum=0.9) for training."
   ]
  },
  {
   "cell_type": "markdown",
   "metadata": {
    "colab_type": "text",
    "id": "1sKXg8fSVO9X"
   },
   "source": [
    "### Model training code "
…
    "train_model(model_ft, criterion, optimizer, num_epochs=3, save_path='saved_weight.pth')\n",
    "# TODO Task 2:  Test the model\n",
    "test_model(model_ft, load_path='saved_weight.pth')"
   ]
  },
  {
   "cell_type": "markdown",
   "metadata": {
    "colab_type": "text",
    "id": "kFQdcJaKFF8y"
   },
   "source": [
    "### 2) CNN"
   ]
  },
  {
   "cell_type": "code",
   "execution_count": 26,
   "metadata": {
    "colab": {},
    "colab_type": "code",
    "id": "ma36XwVfVO9h"
   },
   "outputs": [
    {
     "name": "stdout",
     "output_type": "stream",
     "text": [
      "ConvNet(\n",
      "  (conv1): Conv2d(3, 6, kernel_size=(5, 5), stride=(1, 1))\n",
      "  (pool): MaxPool2d(kernel_size=2, stride=2, padding=0, dilation=1, ceil_mode=False)\n",
      "  (conv2): Conv2d(6, 16, kernel_size=(5, 5), stride=(1, 1))\n",
      "  (fc1): Linear(in_features=400, out_features=120, bias=True)\n",
      "  (fc2): Linear(in_features=120, out_features=84, bias=True)\n",
      "  (fc3): Linear(in_features=84, out_features=10, bias=True)\n",
      ")\n",
      "Epoch 0/2\n",
      "----------\n",
      "train Loss: 1.7080 Acc: 0.3682\n",
      "Epoch 1/2\n",
      "----------\n",
      "train Loss: 1.3450 Acc: 0.5188\n",
      "Epoch 2/2\n",
      "----------\n",
      "train Loss: 1.2125 Acc: 0.5665\n",
      "\n",
      "Training complete in 1m 59s\n",
      "test Acc: 0.5668\n",
      "Testing complete in 0m 4s\n"
…
