…
    "Use the `decode_segmap` function to visualize images and their segmentation. The images must be from the validation set.\n"
   ]
  },
  {
   "cell_type": "code",
   "execution_count": 29,
   "metadata": {},
   "outputs": [],
   "source": [
    "sample = iter(valid_loader).next()"
   ]
  },
  {
   "cell_type": "code",
   "execution_count": 30,
   "metadata": {},
   "outputs": [
    {
     "data": {
      "text/plain": [
       "DataParallel(\n",
       "  (module): Model(\n",
       "    (down1): Down(\n",
       "      (maxpool): MaxPool2d(kernel_size=2, stride=2, padding=0, dilation=1, ceil_mode=False)\n",
       "      (double_conv): Sequential(\n",
       "        (0): Conv2d(3, 64, kernel_size=(3, 3), stride=(1, 1), padding=(1, 1))\n",
       "        (1): BatchNorm2d(64, eps=1e-05, momentum=0.1, affine=True, track_running_stats=True)\n",
       "        (2): ReLU(inplace=True)\n",
       "        (3): Conv2d(64, 64, kernel_size=(3, 3), stride=(1, 1), padding=(1, 1))\n",
       "        (4): BatchNorm2d(64, eps=1e-05, momentum=0.1, affine=True, track_running_stats=True)\n",
       "        (5): ReLU(inplace=True)\n",
       "      )\n",
       "    )\n",
       "    (down2): Down(\n",
       "      (maxpool): MaxPool2d(kernel_size=2, stride=2, padding=0, dilation=1, ceil_mode=False)\n",
       "      (double_conv): Sequential(\n",
       "        (0): Conv2d(64, 128, kernel_size=(3, 3), stride=(1, 1), padding=(1, 1))\n",
       "        (1): BatchNorm2d(128, eps=1e-05, momentum=0.1, affine=True, track_running_stats=True)\n",
       "        (2): ReLU(inplace=True)\n",
       "        (3): Conv2d(128, 128, kernel_size=(3, 3), stride=(1, 1), padding=(1, 1))\n",
       "        (4): BatchNorm2d(128, eps=1e-05, momentum=0.1, affine=True, track_running_stats=True)\n",
       "        (5): ReLU(inplace=True)\n",
       "      )\n",
       "    )\n",
       "    (down3): Down2(\n",
       "      (maxpool): MaxPool2d(kernel_size=2, stride=2, padding=0, dilation=1, ceil_mode=False)\n",
       "      (double_conv): Sequential(\n",
       "        (0): Conv2d(128, 256, kernel_size=(3, 3), stride=(1, 1), padding=(1, 1))\n",
       "        (1): BatchNorm2d(256, eps=1e-05, momentum=0.1, affine=True, track_running_stats=True)\n",
       "        (2): ReLU(inplace=True)\n",
       "        (3): Conv2d(256, 256, kernel_size=(3, 3), stride=(1, 1), padding=(1, 1))\n",
       "        (4): BatchNorm2d(256, eps=1e-05, momentum=0.1, affine=True, track_running_stats=True)\n",
       "        (5): ReLU(inplace=True)\n",
       "        (6): Conv2d(256, 256, kernel_size=(3, 3), stride=(1, 1), padding=(1, 1))\n",
       "        (7): BatchNorm2d(256, eps=1e-05, momentum=0.1, affine=True, track_running_stats=True)\n",
       "        (8): ReLU(inplace=True)\n",
       "      )\n",
       "    )\n",
       "    (down4): Down2(\n",
       "      (maxpool): MaxPool2d(kernel_size=2, stride=2, padding=0, dilation=1, ceil_mode=False)\n",
       "      (double_conv): Sequential(\n",
       "        (0): Conv2d(256, 512, kernel_size=(3, 3), stride=(1, 1), padding=(1, 1))\n",
       "        (1): BatchNorm2d(512, eps=1e-05, momentum=0.1, affine=True, track_running_stats=True)\n",
       "        (2): ReLU(inplace=True)\n",
       "        (3): Conv2d(512, 512, kernel_size=(3, 3), stride=(1, 1), padding=(1, 1))\n",
       "        (4): BatchNorm2d(512, eps=1e-05, momentum=0.1, affine=True, track_running_stats=True)\n",
       "        (5): ReLU(inplace=True)\n",
       "        (6): Conv2d(512, 512, kernel_size=(3, 3), stride=(1, 1), padding=(1, 1))\n",
       "        (7): BatchNorm2d(512, eps=1e-05, momentum=0.1, affine=True, track_running_stats=True)\n",
       "        (8): ReLU(inplace=True)\n",
       "      )\n",
       "    )\n",
       "    (down5): Down2(\n",
       "      (maxpool): MaxPool2d(kernel_size=2, stride=2, padding=0, dilation=1, ceil_mode=False)\n",
       "      (double_conv): Sequential(\n",
       "        (0): Conv2d(512, 1024, kernel_size=(3, 3), stride=(1, 1), padding=(1, 1))\n",
       "        (1): BatchNorm2d(1024, eps=1e-05, momentum=0.1, affine=True, track_running_stats=True)\n",
       "        (2): ReLU(inplace=True)\n",
       "        (3): Conv2d(1024, 1024, kernel_size=(3, 3), stride=(1, 1), padding=(1, 1))\n",
       "        (4): BatchNorm2d(1024, eps=1e-05, momentum=0.1, affine=True, track_running_stats=True)\n",
       "        (5): ReLU(inplace=True)\n",
       "        (6): Conv2d(1024, 1024, kernel_size=(3, 3), stride=(1, 1), padding=(1, 1))\n",
       "        (7): BatchNorm2d(1024, eps=1e-05, momentum=0.1, affine=True, track_running_stats=True)\n",
       "        (8): ReLU(inplace=True)\n",
       "      )\n",
       "    )\n",
       "    (up1): Up(\n",
       "      (up): ConvTranspose2d(1024, 512, kernel_size=(2, 2), stride=(2, 2))\n",
       "      (conv): Down2(\n",
       "        (maxpool): MaxPool2d(kernel_size=2, stride=2, padding=0, dilation=1, ceil_mode=False)\n",
       "        (double_conv): Sequential(\n",
       "          (0): Conv2d(1024, 512, kernel_size=(3, 3), stride=(1, 1), padding=(1, 1))\n",
       "          (1): BatchNorm2d(512, eps=1e-05, momentum=0.1, affine=True, track_running_stats=True)\n",
       "          (2): ReLU(inplace=True)\n",
       "          (3): Conv2d(512, 512, kernel_size=(3, 3), stride=(1, 1), padding=(1, 1))\n",
       "          (4): BatchNorm2d(512, eps=1e-05, momentum=0.1, affine=True, track_running_stats=True)\n",
       "          (5): ReLU(inplace=True)\n",
       "          (6): Conv2d(512, 512, kernel_size=(3, 3), stride=(1, 1), padding=(1, 1))\n",
       "          (7): BatchNorm2d(512, eps=1e-05, momentum=0.1, affine=True, track_running_stats=True)\n",
       "          (8): ReLU(inplace=True)\n",
       "        )\n",
       "      )\n",
       "    )\n",
       "    (up2): Up(\n",
       "      (up): ConvTranspose2d(512, 256, kernel_size=(2, 2), stride=(2, 2))\n",
       "      (conv): Down2(\n",
       "        (maxpool): MaxPool2d(kernel_size=2, stride=2, padding=0, dilation=1, ceil_mode=False)\n",
       "        (double_conv): Sequential(\n",
       "          (0): Conv2d(512, 256, kernel_size=(3, 3), stride=(1, 1), padding=(1, 1))\n",
       "          (1): BatchNorm2d(256, eps=1e-05, momentum=0.1, affine=True, track_running_stats=True)\n",
       "          (2): ReLU(inplace=True)\n",
       "          (3): Conv2d(256, 256, kernel_size=(3, 3), stride=(1, 1), padding=(1, 1))\n",
       "          (4): BatchNorm2d(256, eps=1e-05, momentum=0.1, affine=True, track_running_stats=True)\n",
       "          (5): ReLU(inplace=True)\n",
       "          (6): Conv2d(256, 256, kernel_size=(3, 3), stride=(1, 1), padding=(1, 1))\n",
       "          (7): BatchNorm2d(256, eps=1e-05, momentum=0.1, affine=True, track_running_stats=True)\n",
       "          (8): ReLU(inplace=True)\n",
       "        )\n",
       "      )\n",
       "    )\n",
       "    (up3): Up(\n",
       "      (up): ConvTranspose2d(256, 128, kernel_size=(2, 2), stride=(2, 2))\n",
       "      (conv): Down2(\n",
       "        (maxpool): MaxPool2d(kernel_size=2, stride=2, padding=0, dilation=1, ceil_mode=False)\n",
       "        (double_conv): Sequential(\n",
       "          (0): Conv2d(256, 128, kernel_size=(3, 3), stride=(1, 1), padding=(1, 1))\n",
       "          (1): BatchNorm2d(128, eps=1e-05, momentum=0.1, affine=True, track_running_stats=True)\n",
       "          (2): ReLU(inplace=True)\n",
       "          (3): Conv2d(128, 128, kernel_size=(3, 3), stride=(1, 1), padding=(1, 1))\n",
       "          (4): BatchNorm2d(128, eps=1e-05, momentum=0.1, affine=True, track_running_stats=True)\n",
       "          (5): ReLU(inplace=True)\n",
       "          (6): Conv2d(128, 128, kernel_size=(3, 3), stride=(1, 1), padding=(1, 1))\n",
       "          (7): BatchNorm2d(128, eps=1e-05, momentum=0.1, affine=True, track_running_stats=True)\n",
       "          (8): ReLU(inplace=True)\n",
       "        )\n",
       "      )\n",
       "    )\n",
       "    (up4): Up(\n",
       "      (up): ConvTranspose2d(128, 64, kernel_size=(2, 2), stride=(2, 2))\n",
       "      (conv): Down(\n",
       "        (maxpool): MaxPool2d(kernel_size=2, stride=2, padding=0, dilation=1, ceil_mode=False)\n",
       "        (double_conv): Sequential(\n",
       "          (0): Conv2d(128, 64, kernel_size=(3, 3), stride=(1, 1), padding=(1, 1))\n",
       "          (1): BatchNorm2d(64, eps=1e-05, momentum=0.1, affine=True, track_running_stats=True)\n",
       "          (2): ReLU(inplace=True)\n",
       "          (3): Conv2d(64, 64, kernel_size=(3, 3), stride=(1, 1), padding=(1, 1))\n",
       "          (4): BatchNorm2d(64, eps=1e-05, momentum=0.1, affine=True, track_running_stats=True)\n",
       "          (5): ReLU(inplace=True)\n",
       "        )\n",
       "      )\n",
       "    )\n",
       "    (conv): Conv2d(64, 21, kernel_size=(1, 1), stride=(1, 1))\n",
       "  )\n",
       ")"
      ]
     },
     "execution_count": 30,
     "metadata": {},
     "output_type": "execute_result"
    }
   ],
   "source": [
    "model = create_model_gpu()\n",
    "model.load_state_dict(torch.load('seg_model_gpu[0, 1, 2, 3]_n100_bs16_lr0.001.pkl'))\n",
    "model.eval() # set to evaluation mode"
   ]
  },
  {
   "cell_type": "code",
…
